# by: CSDN Limiiiing

ch: 6
nc: 80 # number of classes
scales: # model compound scaling constants, i.e. 'model=yolov13n.yaml' will call yolov13.yaml with scale 'n'
  # [depth, width, max_channels]
  n: [0.50, 0.25, 1024]   # Nano
  s: [0.50, 0.50, 1024]   # Small
  l: [1.00, 1.00, 512]    # Large
  x: [1.00, 1.50, 512]    # Extra Large

backbone:
  # [from, repeats, module, args]
  - [-1, 1, IN, []]  # 0
  - [-1, 1, Multiin, [1]]  # 1
  - [-2, 1, Multiin, [2]]  # 2

  - [1, 1, Conv,  [64, 3, 2]] # 3-P1/2
  - [-1, 1, Conv,  [128, 3, 2, 1, 2]] # 4-P2/4
  - [-1, 2, DSC3k2,  [256, False, 0.25]]
  - [-1, 1, Conv,  [256, 3, 2, 1, 4]] # 6-P3/8
  - [-1, 2, DSC3k2,  [512, True]]
  - [-1, 1, DSConv,  [512, 3, 2]] # 8-P4/16
  - [-1, 4, A2C2f, [512, True, 4]]
  - [-1, 1, DSConv,  [1024, 3, 2]] # 10-P5/32
  - [-1, 4, A2C2f, [1024, True, 1]] # 11

  - [2, 1, Conv,  [64, 3, 2]] # 12-P1/2
  - [-1, 1, Conv,  [128, 3, 2, 1, 2]] # 13-P2/4
  - [-1, 2, DSC3k2,  [256, False, 0.25]]
  - [-1, 1, Conv,  [256, 3, 2, 1, 4]] # 15-P3/8
  - [-1, 2, DSC3k2,  [512, True]]
  - [-1, 1, DSConv,  [512, 3, 2]] # 17-P4/16
  - [-1, 4, A2C2f, [512, True, 4]]
  - [-1, 1, DSConv,  [1024, 3, 2]] # 19-P5/32
  - [-1, 4, A2C2f, [1024, True, 1]] # 20

  - [[7, 16], 1, DFAFusion, []]  # 21 cat backbone P3
  - [[9, 18], 1, DFAFusion, []]  # 22 cat backbone P4
  - [[11, 20], 1, DFAFusion, []]  # 23 cat backbone P5

head:
  - [[21, 22, 23], 2, HyperACE, [512, 8, True, True, 0.5, 1, "both"]]
  - [-1, 1, nn.Upsample, [None, 2, "nearest"]]
  - [ 24, 1, DownsampleConv, []]
  - [[22, 24], 1, FullPAD_Tunnel, []]  # 27     
  - [[21, 25], 1, FullPAD_Tunnel, []]  # 28    
  - [[23, 26], 1, FullPAD_Tunnel, []] # 29 
  
  - [-1, 1, nn.Upsample, [None, 2, "nearest"]]
  - [[-1, 27], 1, Concat, [1]] # cat backbone P4
  - [-1, 2, DSC3k2, [512, True]] # 32
  - [[-1, 24], 1, FullPAD_Tunnel, []]  # 33

  - [32, 1, nn.Upsample, [None, 2, "nearest"]]
  - [[-1, 28], 1, Concat, [1]] # cat backbone P3
  - [-1, 2, DSC3k2, [256, True]] # 36
  - [25, 1, Conv, [256, 1, 1]]
  - [[36, 37], 1, FullPAD_Tunnel, []]  # 38
  
  - [-1, 1, Conv, [256, 3, 2]]
  - [[-1, 33], 1, Concat, [1]] # cat head P4
  - [-1, 2, DSC3k2, [512, True]] # 41
  - [[-1, 24], 1, FullPAD_Tunnel, []]  

  - [41, 1, Conv, [512, 3, 2]]
  - [[-1, 29], 1, Concat, [1]] # cat head P5
  - [-1, 2, DSC3k2, [1024,True]] # 45 (P5/32-large)
  - [[-1, 26], 1, FullPAD_Tunnel, []]  
  
  - [[38, 42, 46], 1, Detect, [nc]] # Detect(P3, P4, P5)
